…
--14273-- warning: L3 cache found, using its data for the LL simulation.
I0512 13:54:20.586411 14273 caffe.cpp:246] Use CPU.
I0512 13:54:20.975508 14273 net.cpp:313] The NetState phase (1) differed from the phase (0) specified by a rule in layer mnist
I0512 13:54:21.052114 14273 net.cpp:49] Initializing net from parameters: 
name: "mnist"
state {
  phase: TEST
}
layer {
  name: "mnist"
  type: "Data"
  top: "data"
  top: "label"
  include {
    phase: TEST
  }
  transform_param {
    scale: 0.00390625
  }
  data_param {
    source: "dataset/mnist/mnist_test_lmdb"
    batch_size: 100
    backend: LMDB
  }
}
layer {
  name: "conv1"
  type: "ConvolutionRistretto"
  bottom: "data"
  top: "conv1"
  param {
    lr_mult: 1
  }
  param {
    lr_mult: 2
  }
  convolution_param {
    num_output: 20
    kernel_size: 5
    stride: 1
    weight_filler {
      type: "xavier"
    }
    bias_filler {
      type: "constant"
    }
  }
  quantization_param {
    precision: INTEGER_POWER_OF_2_WEIGHTS
    bw_layer_in: 8
    bw_layer_out: 8
    fl_layer_in: 8
    fl_layer_out: 6
    exp_min: -8
    exp_max: -1
  }
}
layer {
  name: "pool1"
  type: "Pooling"
  bottom: "conv1"
  top: "pool1"
  pooling_param {
    pool: MAX
    kernel_size: 2
    stride: 2
  }
}
layer {
  name: "conv2"
  type: "ConvolutionRistretto"
  bottom: "pool1"
  top: "conv2"
  param {
    lr_mult: 1
  }
  param {
    lr_mult: 2
  }
  convolution_param {
    num_output: 50
    kernel_size: 5
    stride: 1
    weight_filler {
      type: "xavier"
    }
    bias_filler {
      type: "constant"
    }
  }
  quantization_param {
    precision: INTEGER_POWER_OF_2_WEIGHTS
    bw_layer_in: 8
    bw_layer_out: 8
    fl_layer_in: 6
    fl_layer_out: 5
    exp_min: -8
    exp_max: -1
  }
}
layer {
  name: "pool2"
  type: "Pooling"
  bottom: "conv2"
  top: "pool2"
  pooling_param {
    pool: MAX
    kernel_size: 2
    stride: 2
  }
}
layer {
  name: "ip1"
  type: "FcRistretto"
  bottom: "pool2"
  top: "ip1"
  param {
    lr_mult: 1
  }
  param {
    lr_mult: 2
  }
  inner_product_param {
    num_output: 500
    weight_filler {
      type: "xavier"
    }
    bias_filler {
      type: "constant"
    }
  }
  quantization_param {
    precision: INTEGER_POWER_OF_2_WEIGHTS
    bw_layer_in: 8
    bw_layer_out: 8
    fl_layer_in: 5
    fl_layer_out: 5
    exp_min: -8
    exp_max: -1
  }
}
layer {
  name: "relu1"
  type: "ReLU"
  bottom: "ip1"
  top: "ip1"
}
layer {
  name: "ip2"
  type: "FcRistretto"
  bottom: "ip1"
  top: "ip2"
  param {
    lr_mult: 1
  }
  param {
    lr_mult: 2
  }
  inner_product_param {
    num_output: 10
    weight_filler {
      type: "xavier"
    }
    bias_filler {
      type: "constant"
    }
  }
  quantization_param {
    precision: INTEGER_POWER_OF_2_WEIGHTS
    bw_layer_in: 8
    bw_layer_out: 8
    fl_layer_in: 5
    fl_layer_out: 4
    exp_min: -8
    exp_max: -1
  }
}
layer {
  name: "loss"
  type: "SoftmaxWithLoss"
  bottom: "ip2"
  bottom: "label"
  top: "loss"
}
layer {
  name: "accuracy"
  type: "Accuracy"
  bottom: "ip2"
  bottom: "label"
  top: "accuracy"
  include {
    phase: TEST
  }
}
I0512 13:54:21.111182 14273 layer_factory.hpp:77] Creating layer mnist
I0512 13:54:21.159456 14273 net.cpp:91] Creating Layer mnist
I0512 13:54:21.162643 14273 net.cpp:443] mnist -> data
I0512 13:54:21.182008 14273 net.cpp:443] mnist -> label
I0512 13:54:21.215804 14290 db_lmdb.cpp:35] Opened lmdb dataset/mnist/mnist_test_lmdb
I0512 13:54:21.269053 14273 data_layer.cpp:41] output data size: 100,1,28,28
I0512 13:54:21.273783 14273 net.cpp:141] Setting up mnist
I0512 13:54:21.278820 14273 net.cpp:148] Top shape: 100 1 28 28 (78400)
I0512 13:54:21.280086 14273 net.cpp:148] Top shape: 100 (100)
I0512 13:54:21.280550 14273 net.cpp:156] Memory required for data: 314000
I0512 13:54:21.282085 14273 layer_factory.hpp:77] Creating layer label_mnist_1_split
I0512 13:54:21.284330 14273 net.cpp:91] Creating Layer label_mnist_1_split
I0512 13:54:21.309301 14273 net.cpp:469] label_mnist_1_split <- label
I0512 13:54:21.315012 14273 net.cpp:443] label_mnist_1_split -> label_mnist_1_split_0
I0512 13:54:21.316226 14273 net.cpp:443] label_mnist_1_split -> label_mnist_1_split_1
I0512 13:54:21.318704 14273 net.cpp:141] Setting up label_mnist_1_split
I0512 13:54:21.325065 14273 net.cpp:148] Top shape: 100 (100)
I0512 13:54:21.325845 14273 net.cpp:148] Top shape: 100 (100)
I0512 13:54:21.325991 14273 net.cpp:156] Memory required for data: 314800
I0512 13:54:21.326143 14273 layer_factory.hpp:77] Creating layer conv1
I0512 13:54:21.331434 14273 net.cpp:91] Creating Layer conv1
I0512 13:54:21.331645 14273 net.cpp:469] conv1 <- data
I0512 13:54:21.332772 14273 net.cpp:443] conv1 -> conv1
I0512 13:54:21.371059 14273 net.cpp:141] Setting up conv1
I0512 13:54:21.371362 14273 net.cpp:148] Top shape: 100 20 24 24 (1152000)
I0512 13:54:21.371500 14273 net.cpp:156] Memory required for data: 4922800
I0512 13:54:21.381626 14273 layer_factory.hpp:77] Creating layer pool1
I0512 13:54:21.383571 14273 net.cpp:91] Creating Layer pool1
I0512 13:54:21.383743 14273 net.cpp:469] pool1 <- conv1
I0512 13:54:21.384181 14273 net.cpp:443] pool1 -> pool1
I0512 13:54:21.392513 14273 net.cpp:141] Setting up pool1
I0512 13:54:21.392784 14273 net.cpp:148] Top shape: 100 20 12 12 (288000)
I0512 13:54:21.392920 14273 net.cpp:156] Memory required for data: 6074800
I0512 13:54:21.393055 14273 layer_factory.hpp:77] Creating layer conv2
I0512 13:54:21.393369 14273 net.cpp:91] Creating Layer conv2
I0512 13:54:21.393507 14273 net.cpp:469] conv2 <- pool1
I0512 13:54:21.393729 14273 net.cpp:443] conv2 -> conv2
I0512 13:54:21.399693 14273 net.cpp:141] Setting up conv2
I0512 13:54:21.399986 14273 net.cpp:148] Top shape: 100 50 8 8 (320000)
I0512 13:54:21.400122 14273 net.cpp:156] Memory required for data: 7354800
I0512 13:54:21.401656 14273 layer_factory.hpp:77] Creating layer pool2
I0512 13:54:21.401882 14273 net.cpp:91] Creating Layer pool2
I0512 13:54:21.402027 14273 net.cpp:469] pool2 <- conv2
I0512 13:54:21.402218 14273 net.cpp:443] pool2 -> pool2
I0512 13:54:21.402490 14273 net.cpp:141] Setting up pool2
I0512 13:54:21.402694 14273 net.cpp:148] Top shape: 100 50 4 4 (80000)
I0512 13:54:21.402822 14273 net.cpp:156] Memory required for data: 7674800
I0512 13:54:21.402952 14273 layer_factory.hpp:77] Creating layer ip1
I0512 13:54:21.404968 14273 net.cpp:91] Creating Layer ip1
I0512 13:54:21.405139 14273 net.cpp:469] ip1 <- pool2
I0512 13:54:21.405371 14273 net.cpp:443] ip1 -> ip1
I0512 13:54:21.480445 14273 net.cpp:141] Setting up ip1
I0512 13:54:21.480733 14273 net.cpp:148] Top shape: 100 500 (50000)
I0512 13:54:21.480885 14273 net.cpp:156] Memory required for data: 7874800
I0512 13:54:21.481199 14273 layer_factory.hpp:77] Creating layer relu1
I0512 13:54:21.482118 14273 net.cpp:91] Creating Layer relu1
I0512 13:54:21.482280 14273 net.cpp:469] relu1 <- ip1
I0512 13:54:21.482800 14273 net.cpp:430] relu1 -> ip1 (in-place)
I0512 13:54:21.484277 14273 net.cpp:141] Setting up relu1
I0512 13:54:21.484669 14273 net.cpp:148] Top shape: 100 500 (50000)
I0512 13:54:21.484802 14273 net.cpp:156] Memory required for data: 8074800
I0512 13:54:21.484935 14273 layer_factory.hpp:77] Creating layer ip2
I0512 13:54:21.485229 14273 net.cpp:91] Creating Layer ip2
I0512 13:54:21.485364 14273 net.cpp:469] ip2 <- ip1
I0512 13:54:21.485599 14273 net.cpp:443] ip2 -> ip2
I0512 13:54:21.487045 14273 net.cpp:141] Setting up ip2
I0512 13:54:21.487264 14273 net.cpp:148] Top shape: 100 10 (1000)
I0512 13:54:21.487396 14273 net.cpp:156] Memory required for data: 8078800
I0512 13:54:21.487644 14273 layer_factory.hpp:77] Creating layer ip2_ip2_0_split
I0512 13:54:21.487828 14273 net.cpp:91] Creating Layer ip2_ip2_0_split
I0512 13:54:21.487958 14273 net.cpp:469] ip2_ip2_0_split <- ip2
I0512 13:54:21.488148 14273 net.cpp:443] ip2_ip2_0_split -> ip2_ip2_0_split_0
I0512 13:54:21.488677 14273 net.cpp:443] ip2_ip2_0_split -> ip2_ip2_0_split_1
I0512 13:54:21.488945 14273 net.cpp:141] Setting up ip2_ip2_0_split
I0512 13:54:21.489133 14273 net.cpp:148] Top shape: 100 10 (1000)
I0512 13:54:21.489303 14273 net.cpp:148] Top shape: 100 10 (1000)
I0512 13:54:21.489418 14273 net.cpp:156] Memory required for data: 8086800
I0512 13:54:21.489828 14273 layer_factory.hpp:77] Creating layer loss
I0512 13:54:21.491242 14273 net.cpp:91] Creating Layer loss
I0512 13:54:21.491444 14273 net.cpp:469] loss <- ip2_ip2_0_split_0
I0512 13:54:21.492686 14273 net.cpp:469] loss <- label_mnist_1_split_0
I0512 13:54:21.494050 14273 net.cpp:443] loss -> loss
…
